submissions/202400683/assignment5/beatsaber_model_weights.pth (torch, 7829 bytes, 6 tensors)

layer1.0.weight f4 [32, 14]
0	0x3d16ee1f	0.036848184
1	0x3ec983be	0.39358324
2	0x3df5d841	0.12004138
3	0x3ea2009d	0.31641093
4	0x3e5aa5b6	0.21352276
5	0x3ecb9b83	0.39767084
6	0x3ee3439e	0.44387525
7	0x3ddf8b53	0.10915246
8	0x3e46d437	0.19416891
9	0x3eac3f4e	0.33642048
10	0x3e32c2b2	0.17457083
11	0x3e8c6a3c	0.274248
12	0x3a22ba8f	0.0006207609
13	0x3ed37128	0.4129727
14	0xbe20c630	-0.15700603
15	0xbee39ff4	-0.44457972
16	0x3dfd6ad4	0.123738915
17	0xbf5eb667	-0.86997074
18	0x3eed81f6	0.46388215
19	0xbe7cc466	-0.24684295
20	0x3f1ccbc6	0.61248434
21	0x3f09897f	0.5372543
22	0xbe7c3aae	-0.2463176
23	0x3ebd42a7	0.36964914
24	0x3f0b30fb	0.54371613
25	0x3f063639	0.5242649
26	0xbee5f81b	-0.44915852
27	0x3f35394a	0.7079054
28	0x3e690d30	0.22758937
29	0x3e028abf	0.1274824
30	0x3ec6aca4	0.3880359
31	0x3c8d4bdc	0.017248087
32	0x3e28e086	0.16491899
33	0x3e8b338f	0.27187774
34	0xbd88bdc7	-0.06676822
35	0x3e54776b	0.2074868
36	0x3ede87c8	0.43462968
37	0x3e2aeec3	0.16692643
38	0x3c371d52	0.011176424
39	0x3ea2b720	0.31780338
40	0x3e80923e	0.25111574
41	0x3e1f82f4	0.15577298
42	0x3e93a769	0.2883866
43	0xbc5a6ece	-0.013332082
44	0xbee75055	-0.45178476
45	0xbed82f36	-0.4222352
46	0xbf13e3bd	-0.57769376
47	0x3ef81e69	0.484607
48	0xbeca49e4	-0.395095
49	0x3e75b51f	0.23994873
50	0xbd159215	-0.036516268
51	0xbdf3b286	-0.11899285
52	0x3e11bc0e	0.14231893
53	0xbf1eb849	-0.61999947
54	0xbe891874	-0.2677647
55	0xbf1fcf4e	-0.62425697
56	0x3ed2a806	0.41143817
57	0xbe88830f	-0.2666249
58	0xbd767531	-0.060170356
59	0x3ded4b2c	0.115866035
60	0xbde9ca73	-0.11415567
61	0x3e955278	0.2916448
62	0xbed6690a	-0.41877013
63	0x3ee0f201	0.43934634
64	0x3d7894a0	0.060688615
65	0xbec6ace3	-0.38803777
66	0x3d02bf2f	0.031920608
67	0x3d0499f3	0.03237338
68	0x3e583232	0.21112898
69	0xbe575780	-0.21029472
70	0xbe12889f	-0.1430993
71	0x3e980324	0.29689896
72	0x3ea9ba1e	0.3314981
73	0x3e366865	0.17813261
74	0x3ec8a630	0.3918929
75	0x3dc27e89	0.09496791
76	0x3e992626	0.29911917
77	0x3ea3f5d8	0.320235
78	0x3e44f7f5	0.19235213
79	0x3dc721d5	0.0972325
80	0x3df1eb40	0.118124485
81	0x3e7f32b4	0.24921685
82	0x3f077edf	0.52927965
83	0x3ed10005	0.40820327
84	0xbd81a844	-0.06330922
85	0x3d9a8fed	0.07546983
86	0x3ed3660e	0.412888
87	0x3ed6c756	0.41948956
88	0x3e8d366d	0.27580586
89	0x3e8102ef	0.2519755
90	0x3e37a5e1	0.17934372
91	0x3e0c6246	0.13709363
92	0x3ebc7621	0.36808875
93	0x3e3b4b9a	0.18290558
94	0x3e6cfa88	0.23142445
95	0x3eb4d108	0.35315728
96	0x3e87cea7	0.2652485
97	0x3e3dfe00	0.18553925
98	0xbe5a4505	-0.21315391
99	0x3f1434d8	0.57893133
100	0x3f0d6442	0.55231106
101	0x3f01ce7e	0.5070571
102	0x3e098694	0.13430244
103	0x3f1effa5	0.6210883
104	0x3ed6ab17	0.41927406
105	0x3d4b207f	0.049591538
106	0x3e4c9e4a	0.19982257
107	0x3e9287bd	0.28619185
108	0x3e2a28b4	0.1661709
109	0x3e868cf2	0.26279408
110	0x3f0a7751	0.5408831
111	0x3d726164	0.05917491
112	0x3dc96609	0.09833915
113	0xbcf03439	-0.029321777
114	0x3e03dcc0	0.12877178
115	0x3eacf101	0.3377762
116	0x3e59ceb7	0.21270262
117	0x3e9ca756	0.30596417
118	0xbe1aa7bb	-0.15103047
119	0xbdc794ab	-0.09745153
120	0xbda9a638	-0.08283657
121	0x3e245d49	0.1605121
122	0xbde7a315	-0.11310402
123	0x3e6ecd17	0.23320423
124	0xbdba52b4	-0.090978056
125	0xbcc3f8ca	-0.023922343
126	0xbb88188b	-0.0041533164
127	0x3ec894e5	0.39176098
128	0x3e9cc339	0.30617693
129	0x3e6de9a2	0.23233655
130	0x3f1fc2f7	0.6240687
131	0x3ea3a33a	0.3196047
132	0xbe38bea8	-0.1804148
133	0x3ef8b02f	0.48571917
134	0x3e7b592b	0.24545734
135	0x3eff2dab	0.4983953
136	0x3f10ffbb	0.56640214
137	0x3ecc0e7c	0.398548
138	0x3ecb6817	0.39727852
139	0x3e8b5576	0.2721364
140	0xbcd65c1f	-0.026166974
141	0x3b1e187c	0.002412348
142	0xbda4da8d	-0.08049498
143	0x3ebd4fa2	0.36974818
144	0xbdb1c048	-0.08679253
145	0x3e8393e9	0.25698784
146	0x3d88436f	0.06653487
147	0x3d80d869	0.06291277
148	0x3d3c5554	0.045979813
149	0x3d03f4c9	0.032215867
150	0x3e73344c	0.23750418
151	0xbb8343c8	-0.004005883
152	0x3eca0c89	0.3946269
153	0x3e57f7a7	0.21090566
154	0xbe968855	-0.29400888
155	0x3e8d0658	0.27543902
156	0xbda7446f	-0.081673495
157	0x3e90c811	0.2827764
158	0xbe0a0147	-0.1347705
159	0x3e9aae97	0.30211326
160	0x3e89fd69	0.2695115
161	0x3e4b6bbc	0.19865316
162	0x3e5f09a3	0.2178102
163	0x3e0989e3	0.13431506
164	0x3e892358	0.26784778
165	0xbe06a1a4	-0.13147599
166	0x3da35f49	0.079771586
167	0x3e8add14	0.27121794
168	0x3e945a00	0.28974915
169	0xbe3f09a9	-0.18656029
170	0x3e61dfaa	0.22057977
171	0xbd112f4a	-0.03544549
172	0xbdb92d4f	-0.09041845
173	0x3e28c4a7	0.16481267
174	0xbe887afa	-0.26656324
175	0x3e83c1fa	0.2573393
176	0x3c6217a1	0.013799579
177	0x3d913978	0.070910394
178	0x3e2ebdd7	0.17064606
179	0x3e94e2f5	0.29079404
180	0x3ec973af	0.39346072
181	0x3e09c98b	0.13455789
182	0x3e9fefcc	0.31237638
183	0xbe11f6d8	-0.1425432
184	0xbdf3d87b	-0.11906525
185	0xbd2ffb6d	-0.042964388
186	0xbec447bb	-0.38335976
187	0xbe3e6fe5	-0.18597372
188	0xbe7b51c7	-0.24542914
189	0x3e6f08cd	0.23343201
190	0x3e184f20	0.14873934
191	0xbef9e4fc	-0.48807514
192	0xbe73bb6b	-0.23801963
193	0xbe976fe0	-0.2957754
194	0xbe5e6cd5	-0.21721204
195	0xbeee6cb5	-0.46567312
196	0xbec1d889	-0.37860516
197	0x3ee5a087	0.44849035
198	0x3ecd7c02	0.40133673
199	0x3e986b9e	0.29769605
200	0x3e6955a7	0.2278658
201	0x3e9dfc4b	0.30856547
202	0x3ec0d986	0.37665957
203	0x3edd2c68	0.43197942
204	0x3eaaec71	0.33383515
205	0x3eba7fb2	0.3642555
206	0x3e861e6c	0.26195085
207	0x3c799202	0.015232565
208	0x3e5a30f8	0.21307743
209	0x3e8fc0ae	0.2807669
210	0xbe2bb16a	-0.16766897
211	0xbe542883	-0.20718579
212	0xbdfa0d60	-0.12209582
213	0x3e47e230	0.19519877
214	0xbe36e105	-0.17859276
215	0x3d7d8be0	0.061900973
216	0xbe22396a	-0.15842214
217	0x3e854a27	0.26033136
218	0xbe5930ad	-0.21209975
219	0x3e5c69e6	0.21524772
220	0xbdc910ae	-0.098176345
221	0xbe6c8f9a	-0.23101655
222	0x3c0f1c20	0.008734733
223	0xbe53e84d	-0.20694084
224	0xbe82b0b2	-0.25525433
225	0x3ea62767	0.32451937
226	0x3e52c630	0.20583415
227	0x3e6e0aec	0.23246354
228	0x3e504e62	0.203424
229	0x3eaab666	0.33342284
230	0x3e35cb9b	0.1775345
231	0x3eba8792	0.36431557
232	0x3e5dec07	0.21672069
233	0xbc00fbc9	-0.00787253
234	0xbd24a8f3	-0.040200185
235	0x3e8a62fd	0.27028647
236	0x3eabaf31	0.33532098
237	0x3deb07f9	0.1147613
238	0x3ec0d4b3	0.37662277
239	0xbe04a1a5	-0.12952287
240	0x3ed7181c	0.42010581
241	0x3d1f9282	0.03895808
242	0xbdd515bd	-0.10404537
243	0x3e60e24c	0.21961325
244	0xbf0f84a1	-0.5606175
245	0x3e6015bc	0.21883291
246	0x3e1a871d	0.15090604
247	0xbf025d76	-0.5092386
248	0x3ea87ebe	0.32909197
249	0x3da525c4	0.08063844
250	0x3e04df5d	0.12975831
251	0xbdfee0be	-0.1244521
252	0x3e8d9b5b	0.2765759
253	0x3cc1c06c	0.023651324
254	0xbefff177	-0.4998891
255	0xbf1599cc	-0.584378

layer1.0.bias f4 [32]
0	0xbe4f91fd	-0.20270534
1	0xbe8ff4f9	-0.28116587
2	0xbec51b31	-0.38497308
3	0x3f074df0	0.528533
4	0x3e9940e4	0.2993232
5	0xbe6b4985	-0.22977264
6	0xbe8ea8e6	-0.27863234
7	0xbed83811	-0.42230275
8	0x3ebb3e78	0.36571097
9	0xbec62747	-0.3870184
10	0x3e8a6bcc	0.27035367
11	0x3eb17373	0.34658393
12	0x3e908afc	0.28231037
13	0x3f0d3ae8	0.5516801
14	0xbe9ff30a	-0.31240112
15	0xbe78e83e	-0.24307343
16	0xbe530eb7	-0.20611082
17	0x3e2b39ad	0.1672122
18	0x3ef4832f	0.47756335
19	0x3e9736bc	0.29533947
20	0x3ecb98d6	0.39765042
21	0x3e1fc60e	0.15602896
22	0xbe8ee9a7	-0.27912638
23	0x3dee31f0	0.116306186
24	0x3ed15e9e	0.408925
25	0x3ecbf05f	0.39831826
26	0xbe93607c	-0.2878455
27	0x3ef7f575	0.48429456
28	0xbeba528c	-0.36391103
29	0x3f0aa33d	0.5415533
30	0xbe5919a6	-0.2120119
31	0xbddef370	-0.10886276

layer2.0.weight f4 [16, 32]
0	0x3edf9776	0.43670243
1	0xbf27ed0d	-0.65596086
2	0x3e2e6413	0.17030363
3	0xbf0c1d06	-0.54731786
4	0xbe8cc612	-0.27494866
5	0x3ec4dc6d	0.38449422
6	0x3e287735	0.16451724
7	0x3eceded6	0.40404385
8	0xbdca32b7	-0.09872954
9	0x3ebf5b8b	0.3737453
10	0xbe533cce	-0.20628664
11	0x3e31c69e	0.17360923
12	0xbd024353	-0.031802487
13	0xbeda87c8	-0.42681718
14	0x3e8c93fe	0.2745666
15	0xbe104ccb	-0.14091794
16	0x3eb1f416	0.34756535
17	0xbea80946	-0.32819575
18	0xbec9d9e2	-0.39424044
19	0x3ca9a7ea	0.02070995
20	0xbe88a015	-0.26684633
21	0x3e144138	0.14478004
22	0x3e838d02	0.25693518
23	0x3cdcc6b9	0.026950227
24	0xbeb45270	-0.35219145
25	0xbe96f6d0	-0.29485178
26	0x3ef25e6a	0.47337657
27	0xbee46f63	-0.4461623
28	0x3f3b5830	0.7318144
29	0x3f320c09	0.69549614
30	0x3ec68d60	0.38779736
31	0x3cd36848	0.025806561
32	0x3eabe7a1	0.33575156
33	0x3e31a80a	0.17349258
34	0x3e51ac41	0.20475866
35	0x3f02c4d9	0.51081616
36	0x3e6d962e	0.2320182
37	0x3e998d2f	0.29990527
38	0x3e88d170	0.26722288
39	0x3ef0a0f7	0.46997806
40	0x3e89ad81	0.26890185
41	0x3e9b8acc	0.3037933
42	0x3eaac08d	0.3335003
43	0x3ecce282	0.40016562
44	0x3ebeaf05	0.37242904
45	0x3e845d1f	0.25852296
46	0x3dc2f531	0.09519423
47	0xbe25bbfa	-0.16184989
48	0x3e5aaa3f	0.21354006
49	0x3edca78e	0.43096584
50	0x3ec44385	0.38332763
51	0x3e48f866	0.19626006
52	0x3e8f6131	0.2800384
53	0x3e40feb9	0.18847169
54	0x3e96333d	0.29335967
55	0x3f1e230e	0.6177224
56	0x3f199e01	0.6000672
57	0x3eba638a	0.36404067
58	0x3f10e86c	0.5660465
59	0x3eb8d000	0.3609619
60	0xbf3e6704	-0.7437594
61	0xbe555a87	-0.20835315
62	0x3ea1fe19	0.31639174
63	0xbe274466	-0.16334686
64	0x3e2c1c75	0.1680773
65	0x3ebbdab3	0.36690292
66	0xbe32c55b	-0.17458098
67	0x3f37bb30	0.7177
68	0x3dadb615	0.08481995
69	0xbedc2c7f	-0.43002698
70	0x3dcccfa1	0.100005396
71	0xbec8a69e	-0.3918962
72	0x3ea9f807	0.33197042
73	0xbed7f070	-0.42175627
74	0xbc8180c5	-0.015808472
75	0x3e662cd4	0.22478038
76	0x3e31a92c	0.1734969
77	0x3ebb1ebb	0.36546883
78	0xbe03e6a2	-0.12880948
79	0xbcab0c70	-0.020879954
80	0x3cb58722	0.022159163
81	0x3e1dc70d	0.15407963
82	0x3f0c078a	0.54699004
83	0x3e2503fd	0.16114803
84	0x3e9ebda7	0.31004068
85	0x3e8701bb	0.26368508
86	0xbdd6c3e0	-0.10486579
87	0x3eb9ffc3	0.36327943
88	0x3e22e2d5	0.15906842
89	0x3e262825	0.16226251
90	0xbe4eee03	-0.20207982
91	0x3eb873b8	0.36025786
92	0xbea68975	-0.32526746
93	0x3f464ad9	0.7745796
94	0xbe2db565	-0.16963728
95	0xbddbb5ba	-0.10728021
96	0x3ec0cee3	0.37657842
97	0xbf4899cf	-0.78359693
98	0x3ceb9e14	0.028761901
99	0xbee707fb	-0.45123276
100	0xbc0b2023	-0.008491549
101	0x3ec86369	0.39138344
102	0x3e956300	0.29177094
103	0x3eb3245d	0.3498868
104	0xbc297560	-0.010342926
105	0x3e27cd37	0.16386877
106	0x3ccde300	0.025132656
107	0x3e6f5340	0.23371601
108	0xbdede19a	-0.11615296
109	0xbee632de	-0.44960684
110	0x3ee575be	0.44816393
111	0xbe2c6091	-0.16833712
112	0x3e78c7dd	0.24294992
113	0xbe8b70be	-0.27234453
114	0xbf06e04b	-0.52685994
115	0xbe2ad994	-0.16684562
116	0xbe0ad41c	-0.13557476
117	0xbdef857a	-0.116953805
118	0x3eaf40e6	0.342292
119	0x3d49885e	0.049202316
120	0xbe6e4e48	-0.2327205
121	0xbe8a4bb4	-0.27010882
122	0x3eeecf67	0.4664261
123	0xbec02941	-0.37531474
124	0xbdb80d8e	-0.0898696
125	0x3f16cf22	0.5890981
126	0x3ecd27ee	0.40069526
127	0xbd4b5b4c	-0.049647614
128	0x3e5cef3e	0.21575639
129	0xbf12f655	-0.5740712
130	0x3dce2782	0.10066129
131	0xbe8ace33	-0.27110443
132	0xbd4f4a4d	-0.050607968
133	0x3ec96421	0.39334205
134	0x3e4eacc4	0.20183092
135	0x3edaf9ca	0.427687
136	0xbd3a5935	-0.04549523
137	0x3ea26125	0.3171474
138	0xbdffe007	-0.12493902
139	0xbc9f15dc	-0.019419603
140	0xbdbeca73	-0.09315958
141	0xbea69b94	-0.32540572
142	0x3eac4969	0.33649758
143	0xbe06f841	-0.13180639
144	0x3e35a374	0.17738134
145	0xbe863edf	-0.26219842
146	0xbf12475e	-0.5714015
147	0x3c6dc127	0.014511383
148	0xbe841ca5	-0.25803104
149	0xbdeaefd8	-0.11471528
150	0x3cdd3767	0.027003957
151	0xbe0a077d	-0.13479419
152	0xbeb362d7	-0.35036346
153	0xbebf9ba7	-0.3742344
154	0x3ed8162b	0.42204413
155	0xbf0bc3b5	-0.545955
156	0xbd9ad58d	-0.07560263
157	0x3ed62217	0.41822883
158	0x3df68371	0.12036789
159	0x3e1456c9	0.14486231
160	0x3e858bb6	0.26083153
161	0xbf4a1cef	-0.789504
162	0x3ceaa850	0.02864471
163	0xbec1872b	-0.37798437
164	0xbdac4669	-0.08411867
165	0x3e34b06e	0.17645428
166	0x3e11ada2	0.14226392
167	0x3eddfa68	0.43355107
168	0xbdc4af9b	-0.096038066
169	0x3e661aa4	0.224711
170	0xbdf76e72	-0.12081613
171	0x3e03ffe5	0.12890585
172	0xbde37832	-0.1110691
173	0xbebcb467	-0.36856386
174	0x3ed920d8	0.4240787
175	0xbe2df9f4	-0.16989881
176	0xbd267878	-0.04064223
177	0xbe2523ac	-0.16126889
178	0xbecc0abb	-0.39851937
179	0xbe75d035	-0.24005206
180	0xbe375456	-0.17903265
181	0xbd9666ac	-0.07343802
182	0x3eadc08c	0.33935964
183	0xbedfb632	-0.43693691
184	0xbe237c4d	-0.15965386
185	0xbe458d6e	-0.19292232
186	0x3e823c43	0.254366
187	0xbf0e6136	-0.5561708
188	0xbd700546	-0.05859878
189	0x3eaf6567	0.3425705
190	0x3ee3e4b3	0.4451042
191	0xbe085585	-0.13313873
192	0x3e015c09	0.12632765
193	0xbd311d72	-0.043240972
194	0x3e8ec32f	0.27883288
195	0xbe751358	-0.2393316
196	0xbe3ed7dd	-0.18637033
197	0x3ebf1f56	0.37328595
198	0x3d1dac81	0.03849459
199	0x3f093248	0.5359235
200	0x3bafbf1f	0.0053633596
201	0x3ebc0636	0.3672349
202	0x3e51a2d7	0.20472275
203	0x3b29c02c	0.0025901897
204	0x3dac5a4b	0.084156595
205	0xbe566dc1	-0.20940305
206	0x3d3d5f5a	0.046233512
207	0x3ddb9e9a	0.1072361
208	0x3e9a5a0f	0.30146834
209	0x3d964e89	0.07339198
210	0xbec18b35	-0.3780152
211	0xbe56e6b7	-0.20986448
212	0xbe995065	-0.2994415
213	0x3e48eb1e	0.1962094
214	0x3e9330d7	0.287482
215	0x3e3621ab	0.17786281
216	0xbeabc589	-0.33549145
217	0xbe1fa367	-0.15589677
218	0x3eae38a7	0.34027597
219	0xbe8806ee	-0.26567787
220	0x3f3a2ba0	0.72722816
221	0xbdad8600	-0.08472824
222	0x3e9c6cfa	0.30551893
223	0xbddab63a	-0.10679288
224	0x3effa9d9	0.4993427
225	0x3f2db56f	0.6785497
226	0x3ee30a2a	0.44343692
227	0xbe2b76fc	-0.16744608
228	0x3e7a4698	0.24440992
229	0x3f03e52c	0.51521564
230	0x3e3433b6	0.17597851
231	0x3ec34349	0.38137272
232	0x3e7e54a1	0.24836971
233	0x3f359734	0.7093384
234	0x3e2cc6c3	0.16872697
235	0x3e213cfe	0.15745923
236	0x3e9303b9	0.28713778
237	0xbe6b601a	-0.22985879
238	0x3e7fe3a1	0.24989177
239	0x3da7c6b6	0.08192198
240	0x3e804ee2	0.25060183
241	0x3e9d045a	0.30667382
242	0xbebe9890	-0.3722577
243	0xbdba5ad0	-0.09099352
244	0xbe23a3a6	-0.15980396
245	0x3e9d7d2e	0.30759567
246	0x3e6499a3	0.22324233
247	0x3ecf228e	0.4045605
248	0xbe20105e	-0.15631244
249	0xbe1fa736	-0.1559113
250	0x3ea61107	0.32434866
251	0xbf0e6603	-0.5562441
252	0x3e33f34a	0.17573276
253	0xbf27bc3b	-0.6552159
254	0x3ed2a279	0.41139582
255	0x3e065b15	0.13120683

layer2.0.bias f4 [16]
0	0xbd809ce9	-0.06279928
1	0x3e8a4713	0.2700735
2	0x3e73b509	0.23799528
3	0xbe998cdb	-0.29990277
4	0xbe11643b	-0.14198391
5	0xbe798907	-0.24368678
6	0xbe3f4d2d	-0.18681784
7	0x3c885c0d	0.016645456
8	0xbd565b88	-0.052333385
9	0xbf272de5	-0.65304404
10	0x3d60808e	0.0548101
11	0xbdb68873	-0.089127444
12	0xbdbf851a	-0.09351559
13	0xbe26a9de	-0.16275737
14	0xbe116632	-0.1419914
15	0x3a05560c	0.00050863693

layer3.weight f4 [5, 16]
0	0xbc9dbd46	-0.019255292
1	0x3d7fc155	0.062440235
2	0x3ed21f58	0.41039538
3	0xbe2bacf4	-0.16765195
4	0x3d7633e2	0.060108073
5	0xbd1b0548	-0.037846833
6	0xbed14694	-0.4087416
7	0xbee84fd0	-0.45373392
8	0xbe2b093d	-0.16702743
9	0xbea1ec31	-0.31625512
10	0xbe677186	-0.226019
11	0xbef33f8c	-0.4750942
12	0xbf157534	-0.5838196
13	0x3dce45b0	0.100718856
14	0xbe81a90e	-0.2532429
15	0x3cf88a5e	0.030339416
16	0xbea6eead	-0.3260397
17	0x3e5a110c	0.21295565
18	0xbce9c380	-0.028535604
19	0x3d08281d	0.03324138
20	0x3e949d95	0.29026476
21	0x3d5863c8	0.052829534
22	0xbf06ebcb	-0.5270354
23	0x3e9a3f22	0.30126292
24	0xbe7ae3d8	-0.24500978
25	0xbebe9f7f	-0.3723106
26	0xbe663ba5	-0.2248369
27	0xbe3122a5	-0.17298372
28	0xbd2cc91a	-0.042183973
29	0xbc4eefc0	-0.012630403
30	0xbda2ceb0	-0.07949579
31	0xbe67e3bc	-0.22645468
32	0xbf118bb8	-0.5685382
33	0x3de884f8	0.11353487
34	0xbefc243d	-0.49246398
35	0xbe8d737f	-0.2762718
36	0xbec1badc	-0.37837875
37	0xbe880336	-0.2656495
38	0xbeb14e82	-0.3463021
39	0x3ef1d88d	0.47235528
40	0xbedbbba9	-0.4291661
41	0x3dc748bb	0.09730669
42	0x3e59667f	0.21230505
43	0x3e1c708f	0.15277313
44	0x3f1cdefa	0.61277735
45	0xbd0cde90	-0.03439194
46	0xbedc8f4e	-0.43078083
47	0x3e1e0112	0.15430096
48	0xbdcf3e29	-0.10119278
49	0xbeb4a6e6	-0.35283583
50	0xbe8af3fc	-0.2713927
51	0xbe8d1ae4	-0.27559578
52	0xbf03f9e5	-0.51553184
53	0xbf2a1a9f	-0.6644687
54	0x3f13f4a5	0.5779517
55	0x3eb27540	0.3485508
56	0x3debb6f9	0.11509509
57	0x3f252ea3	0.64524287
58	0x3df06a94	0.11739078
59	0x3e63a39b	0.2223038
60	0x3ec9d074	0.3941685
61	0x3df81960	0.12114215
62	0x3ed7d0e7	0.42151567
63	0x3e6c93e9	0.23103298
64	0x3edabf2c	0.42723978
65	0xbf024596	-0.5088743
66	0xbeb8aa01	-0.36067203
67	0x3eeb756d	0.45988026
68	0x3ed53bf1	0.41647294
69	0x3e8c4576	0.27396744
70	0x3f09209d	0.5356539
71	0xbde39f7a	-0.11114402
72	0x3e98e789	0.29864147
73	0xbf7cd4bd	-0.9876211
74	0x3e6815d4	0.22664577
75	0x3ee12eda	0.43981057
76	0xbe1066ec	-0.14101762
77	0x3ce79f40	0.028274179
78	0x3e605486	0.21907243
79	0xbdadb70b	-0.08482178

layer3.bias f4 [5]
0	0x3e680c80	0.22661018
1	0xbdae17cf	-0.08500635
2	0xbdf996f9	-0.12186999
3	0xbe15c6e7	-0.14626656
4	0xbe266758	-0.1625036
